Model: "sequential"
+--------------------------------------------------------------------------------------+
| Layer (type)                         | Output Shape                |         Param # |
|--------------------------------------+-----------------------------+-----------------|
| resizing (Resizing)                  | (32, 256, 256, 3)           |               0 |
|--------------------------------------+-----------------------------+-----------------|
| rescaling (Rescaling)                | (32, 256, 256, 3)           |               0 |
|--------------------------------------+-----------------------------+-----------------|
| random_flip (RandomFlip)             | (32, 256, 256, 3)           |               0 |
|--------------------------------------+-----------------------------+-----------------|
| random_rotation (RandomRotation)     | (32, 256, 256, 3)           |               0 |
|--------------------------------------+-----------------------------+-----------------|
| conv2d (Conv2D)                      | (32, 254, 254, 16)          |             448 |
|--------------------------------------+-----------------------------+-----------------|
| max_pooling2d (MaxPooling2D)         | (32, 127, 127, 16)          |               0 |
|--------------------------------------+-----------------------------+-----------------|
| conv2d_1 (Conv2D)                    | (32, 125, 125, 16)          |           2,320 |
|--------------------------------------+-----------------------------+-----------------|
| max_pooling2d_1 (MaxPooling2D)       | (32, 62, 62, 16)            |               0 |
|--------------------------------------+-----------------------------+-----------------|
| conv2d_2 (Conv2D)                    | (32, 60, 60, 16)            |           2,320 |
|--------------------------------------+-----------------------------+-----------------|
| max_pooling2d_2 (MaxPooling2D)       | (32, 30, 30, 16)            |               0 |
|--------------------------------------+-----------------------------+-----------------|
| conv2d_3 (Conv2D)                    | (32, 28, 28, 32)            |           4,640 |
|--------------------------------------+-----------------------------+-----------------|
| max_pooling2d_3 (MaxPooling2D)       | (32, 14, 14, 32)            |               0 |
|--------------------------------------+-----------------------------+-----------------|
| conv2d_4 (Conv2D)                    | (32, 12, 12, 32)            |           9,248 |
|--------------------------------------+-----------------------------+-----------------|
| max_pooling2d_4 (MaxPooling2D)       | (32, 6, 6, 32)              |               0 |
|--------------------------------------+-----------------------------+-----------------|
| flatten (Flatten)                    | (32, 1152)                  |               0 |
|--------------------------------------+-----------------------------+-----------------|
| dense (Dense)                        | (32, 64)                    |          73,792 |
|--------------------------------------+-----------------------------+-----------------|
| dense_1 (Dense)                      | (32, 16)                    |           1,040 |
+--------------------------------------------------------------------------------------+
 Total params: 93,808 (366.44 KB)
 Trainable params: 93,808 (366.44 KB)
 Non-trainable params: 0 (0.00 B)
